model/beauty_100_users_500_items/content/user_embeddings_1.pt (torch, 271630 bytes, 1 tensors)

weight f4 [88, 768]
0.031748723 -0.024925327 0.02241104 -0.042293698 -0.00032876662 0.028179085 0.015906492 -0.015788753
0.006277898 -0.062264472 -0.017391322 -0.021927333 0.0077469875 -0.008005551 0.01656721 -0.024116235
0.027344283 0.051834885 -0.015443706 -0.006925837 0.012504831 -0.026017841 0.033941302 0.0060172477
0.049198043 0.021310847 -0.009140799 0.02728952 0.042926718 0.0411733 0.042112563 0.0044725393
0.007897556 -0.03690793 -0.048499458 0.005736094 -0.023038326 0.020250794 -0.02004952 -0.0018973955
0.031657346 -0.009935693 0.010742094 0.0018081457 0.02786333 0.019909466 -0.022894427 -0.0025559568
0.027731238 -0.029095048 0.019068973 0.036158983 -0.0028545181 -0.01719921 0.025099648 -0.009218785
0.0037183089 -0.029623661 -0.038430464 -0.006320976 -0.0031269274 0.06564135 -0.0004631031 0.01382428
0.041997172 -0.018668838 0.054669853 -0.01903092 0.014418519 0.04635448 -0.014621792 0.013806193
-0.03583131 -0.014483157 0.05935764 -0.026648898 0.030915152 -0.0027097438 0.017289061 -0.00076389423
-0.0026503599 0.041692223 0.037835818 -0.0021618234 0.045508623 0.0032798133 -0.014508689 -0.0025066375
0.05005999 0.042590752 -0.06898917 0.0057231085 0.007241897 -0.031989556 0.02722959 0.052300006
-0.051124148 -0.05465668 0.030814577 0.034806184 -0.05843847 -0.031294007 -0.0065740948 0.00073804805
-0.019682193 0.020323087 0.007077686 0.056718014 -0.004857907 0.009375997 0.011485077 -0.006208439
0.024729466 0.021310393 -0.031391546 0.047893617 0.01708391 -0.011552752 0.025341593 -0.04484722
0.008175824 0.028611524 0.014657348 0.061688792 0.010474329 0.0281192 0.027356504 0.011367895
0.012108271 -0.0008523894 0.016252931 -0.020425487 -0.031431586 -0.010898694 -0.0039827186 0.020566097
-0.013639944 0.025189575 -0.06662197 -0.0034641286 0.04952633 0.04584664 0.019309515 -0.0031726328
0.005310909 -0.017193252 0.021434117 -0.00715376 0.021952014 -0.015257163 0.00046077126 -0.008863524
-0.050081383 0.002043886 -0.03476884 -0.00013111693 0.02846572 0.009089898 -0.061102908 -0.0027098793
0.010995647 -0.029069606 0.0063801063 -0.028861629 -0.0015228319 -0.002212315 0.024431417 0.008059429
-0.0036646607 -0.013795991 -0.0032080302 -0.010343703 0.014974909 -0.05806815 0.02093923 0.01892856
-0.038338 0.04682424 0.015174986 0.022699993 0.017566578 -0.024803597 -0.0001836331 0.029785268
0.011006026 -0.012737207 -0.0006205541 -0.011223846 0.0064600706 -0.051187325 -0.033095304 -0.05311649
0.059766162 -0.004301532 0.07959667 0.029209089 0.003940919 -0.025033891 -0.012429687 0.03744297
-0.020675253 -0.031658843 -0.027308976 0.00375355 -0.023603592 0.02395285 0.0071079633 -0.010251258
-0.02755129 0.03796614 0.014711592 0.08682198 0.003546028 -0.01880282 -0.045781847 -0.021752002
0.031432383 -0.013377968 -0.0040892586 0.021305047 -0.046241675 -0.055227384 0.017916286 0.0147632165
-0.020998552 -0.04417473 -0.013660457 0.026092196 -0.038355198 0.021605695 -0.033707082 -0.01952726
0.0032500783 0.0014563304 -0.008733895 -0.021770786 0.002188777 0.0037363297 -0.027858566 -0.02072467
0.016756186 0.020009598 0.02693789 0.004986406 0.038822543 0.061701477 -0.012549989 0.0072920164
0.02171722 0.019205507 -0.004471842 -0.01219141 -0.008946864 0.044225745 0.07994424 -0.047270317
00000000: f30a 023d 3330 ccbc 5b97 b73c 283c 2dbd
00000010: 4f5e acb9 d3d7 e63c 554e 823c 6a57 81bc
00000020: d3b6 cd3b 0809 7fbd 3f78 8ebc f3a0 b3bc
00000030: 71da fd3b b729 03bc f5b7 873c 698f c5bc
00000040: 1e01 e03c d150 543d 9907 7dbc 22f2 e2bb
00000050: 10e1 4c3c 5e23 d5bc 0906 0b3d 552c c53b
00000060: e383 493d 1694 ae3c 4ac3 15bc 458e df3c
00000070: edd3 2f3d 56a5 283d 397e 2c3d 618e 923b
00000080: c064 013c c52c 17bd 5ea7 46bd d8f5 bb3b
00000090: dfba bcbc fee4 a53c e43e a4bc 07b2 f8ba
000000a0: 22ab 013d 51c9 22bc 9cff 2f3c 4dff ec3a
000000b0: a341 e43c 2d19 a33c 188d bbbc d781 27bb
000000c0: 9f2c e33c bd58 eebc 8936 9c3c 711b 143d
000000d0: de12 3bbb 5ce5 8cbc c79d cd3c 630a 17bc
000000e0: dfae 733b 52ad f2bc 4369 1dbd 3120 cfbb
000000f0: 23ed 4cbb f96e 863d a5cc f2b9 3c7f 623c
00000100: 3a05 2c3d 64ef 98bc 7fed 5f3d bbe6 9bbc
00000110: a73b 6c3c 32de 3d3d 3e90 6fbc 5f33 623c
00000120: dac3 12bd c34a 6dbc ff20 733d ca4e dabc
00000130: c641 fd3c f595 31bb caa1 8d3c 1340 48ba
00000140: a9b1 2dbb 77c5 2a3d bbf9 1a3d 61ad 0dbb
00000150: 4067 3a3d 23f2 563b dab5 6dbc 6646 24bb
00000160: b40b 4d3d a473 2e3d 324a 8dbd ea88 bb3b
00000170: 6f4d ed3b 7b07 03bd 9710 df3c 8838 563d
00000180: 8e67 51bd afdf 5fbd da6e fc3c ee90 0e3d
00000190: 2d5d 6fbd 252e 00bd 816b d7bb 9179 413a
000001a0: 8d3c a1bc 9a7c a63c efeb e73b 2651 683d
000001b0: 142f 9fbb c89d 193c e82b 3c3c 2970 cbbb
000001c0: 7395 ca3c 2293 ae3c 6c94 00bd 192c 443d
000001d0: 8ef3 8b3c c147 3dbc 2c99 cf3c b8b1 37bd
000001e0: e4f3 053c b762 ea3c 6025 703c 63ad 7c3d
000001f0: 859c 2b3c 3d5a e63c bf1a e03c 6840 3a3c
00000200: c561 463c e272 5fba de24 853c 5a53 a7bc
00000210: 68be 00bd 7090 32bc 7781 82bb 3b7a a83c
00000220: 127a 5fbc 5e5a ce3c 1971 88bd 6f06 63bb
00000230: 1fdc 4a3d b0c9 3b3d fd2e 9e3c f2eb 4fbb
00000240: 2207 ae3b ddd8 8cbc 9a96 af3c 176a eabb
00000250: b6d4 b33c 2ef9 79bc ac93 f139 5038 11bc
00000260: 2322 4dbd b8f2 053b c569 0ebd 6f7c 09b9
00000270: f130 e93c cced 143c 0b47 7abd 3b98 31bb
00000280: 1627 343c 6223 eebc 3610 d13b 396f ecbc
00000290: c299 c7ba 7dfc 10bb 6524 c83c b20b 043c
000002a0: ce2a 70bb 9508 62bc d13d 52bb a378 29bc
000002b0: 5259 753c ded8 6dbd c088 ab3c 1110 9b3c
000002c0: 4f08 1dbd c6ca 3f3d 81a0 783c 56f5 b93c
000002d0: c9e7 8f3c ea30 cbbc a38d 40b9 3c00 f43c
000002e0: 9e52 343c b8af 50bc aeac 22ba 39e4 37bc
000002f0: 00af d33b cda9 51bd f18e 07bd ad90 59bd
00000300: 5dcd 743d def3 8cbb 9403 a33d e647 ef3c
00000310: d322 813b e013 cdbc e3a5 4bbc cd5d 193d
00000320: 265f a9bc b4ac 01bd 13b7 dfbc 1efe 753b
00000330: 525c c1bc c438 c43c ebe9 e83b e4f4 27bc
00000340: 3eb3 e1bc 6282 1b3d e408 713c b9cf b13d
00000350: 7a64 683b 5f08 9abc bf85 3bbd 4131 b2bc
00000360: 3ebf 003d 442f 5bbc 30ff 85bb ec87 ae3c
00000370: e967 3dbd 1c36 62bd 2dc5 923c 6be1 713c
00000380: 2805 acbc 90f0 34bd 1cd0 5fbc 4dbf d53c
00000390: 571a 1dbd 6dfe b03c 7010 0abd a2f7 9fbc
000003a0: 44ff 543b 57e2 be3a 9c18 0fbc a658 b2bc
000003b0: 9671 0f3b 36dd 743b a637 e4bc c8c6 a9bc
000003c0: 4544 893c 2beb a33c daac dc3c 0165 a33b
000003d0: 6304 1f3d b0ba 7c3d 789e 4dbc def1 ee3b
000003e0: 50e8 b13c de54 9d3c 8888 92bb 7bbe 47bc
000003f0: de95 12bc 0e26 353d ceb9 a33d 859e 41bd
