model/beauty_100_users_500_items/rec/user_embeddings_1.pt (torch, 271630 bytes, 1 tensors)

weight f4 [88, 768]
0.032097705 -0.023200769 0.024935005 -0.042867094 -0.000681066 0.028702779 0.015048251 -0.014063849
0.0043526553 -0.06135454 -0.014664167 -0.022985522 0.011279403 -0.008803729 0.017958093 -0.023667786
0.02906258 0.053756386 -0.01572791 -0.0062929657 0.010068881 -0.02519374 0.032637443 0.009363522
0.05091179 0.022963924 -0.0109470915 0.02770369 0.04764499 0.040721342 0.043822363 0.002556812
0.006848477 -0.037999876 -0.051198673 0.0082781 -0.023646481 0.02153563 -0.021356713 -0.003925169
0.03206719 -0.0132756205 0.009766613 -0.0006491612 0.028131956 0.018740945 -0.02149076 0.0021489933
0.027926415 -0.029128697 0.019094221 0.041948054 -0.0023613959 -0.021798925 0.023145776 -0.0085655125
0.0052636745 -0.030275678 -0.04188969 -0.0062932917 -0.0040885215 0.06893143 -8.629862e-05 0.015269042
0.0425329 -0.016545797 0.056040727 -0.017896544 0.017422823 0.04501564 -0.014856688 0.014460965
-0.036750473 -0.014005125 0.05876782 -0.023384279 0.03132671 -0.00071427197 0.017367972 -0.00056660135
-0.0020678474 0.04242141 0.036393072 -0.0018749184 0.043129608 0.006268027 -0.013584694 0.0007199599
0.053091 0.042090323 -0.06993335 0.006157069 0.01014398 -0.0331701 0.028022315 0.051304817
-0.054593332 -0.05370171 0.030873343 0.037932754 -0.061516922 -0.03155686 -0.008935426 -0.00070564233
-0.021672342 0.016334422 0.00509921 0.05781256 -0.005656975 0.008683006 0.013176893 -0.0061516203
0.024339138 0.024140572 -0.030232074 0.049496602 0.015669584 -0.009182757 0.024762979 -0.04458761
0.008148743 0.03019082 0.0133826025 0.06137737 0.0061538313 0.026828043 0.028594647 0.01066491
0.01473414 0.00015677801 0.01625351 -0.019007668 -0.03214606 -0.010343736 -0.0062639057 0.024282997
-0.016995639 0.02773557 -0.07041778 -0.004742821 0.04809295 0.04352449 0.020577276 -0.0013612327
0.005633995 -0.015414619 0.023291338 -0.00659085 0.023127306 -0.019044485 0.00031183532 -0.01119321
-0.05145709 0.00066403206 -0.03679928 0.00071756635 0.02971409 0.0062356116 -0.061128594 -0.002917417
0.01116422 -0.028080257 0.0010989401 -0.029683478 -0.000653107 -0.0022145428 0.02503082 0.005285119
-0.0065644947 -0.011694054 -0.0022091097 -0.0068343575 0.015618136 -0.057100527 0.020453012 0.020352043
-0.03942117 0.049103163 0.012703621 0.020280136 0.013813235 -0.027726404 -0.00333325 0.027374526
0.013747246 -0.015494459 0.0029888817 -0.010744512 0.006110764 -0.05046126 -0.03478551 -0.05049519
0.06473111 -0.0034096898 0.08164701 0.030747537 0.0016251764 -0.022850132 -0.012043658 0.037735138
-0.020479318 -0.030606631 -0.026005508 0.003379178 -0.025778238 0.0214167 0.0075074295 -0.008427191
-0.02859502 0.03763459 0.018156733 0.085732296 0.0063094366 -0.01695215 -0.04683281 -0.018881861
0.033088595 -0.015769225 -0.0041622655 0.020891916 -0.047821164 -0.054041155 0.022074878 0.013486116
-0.02051554 -0.04526055 -0.011092818 0.024751855 -0.04036456 0.023333639 -0.039120577 -0.015632512
0.002999277 0.0012325208 -0.005584264 -0.023940044 0.0031833146 0.0041115466 -0.027020462 -0.02290932
0.0147619 0.018216478 0.024991708 0.0072823837 0.042910907 0.065569915 -0.015448436 0.009368706
0.020896928 0.02327051 -0.0030191562 -0.013092548 -0.009864601 0.046769764 0.0801994 -0.050285123
00000000: e278 033d 8a0f bebc 7f44 cc3c 6895 2fbd
00000010: 9189 32ba 1722 eb3c f08c 763c 0f6c 66bc
00000020: b8a0 8e3b e64e 7bbd f941 70bc 224c bcbc
00000030: 3fcd 383c 843d 10bc da1c 933c f2e2 c1bc
00000040: a614 ee3c a82f 5c3d d1d7 80bc 3935 cebb
00000050: f3f7 243c 1a63 cebc d7ae 053d 7569 193c
00000060: e288 503d d71e bc3c 6e5b 33bc d9f2 e23c
00000070: 6527 433d 6ccb 263d 147f 333d 3090 273b
00000080: 3069 e03b c2a5 1bbd b3b5 51bd dea0 073c
00000090: 44b6 c1bc 7d6b b03c 46f4 aebc b49e 80bb
000000a0: e358 033d fd81 59bc 2504 203c 782c 2aba
000000b0: fd74 e63c 9c86 993c 640d b0bc 20d6 0c3b
000000c0: f0c5 e43c 4e9f eebc 7c6b 9c3c b9d1 2b3d
000000d0: a6c1 1abb a993 b2bc 369c bd3c 5d56 0cbc
000000e0: e77a ac3b b304 f8bc 8694 2bbd f537 cebb
000000f0: 01f9 85bb ec2b 8d3d 38fb b4b8 012b 7a3c
00000100: fa36 2e3d 0d8b 87bc f68a 653d c69b 92bc
00000110: 4fba 8e3c 5262 383d 7769 73bc afed 6c3c
00000120: aa87 16bd c075 65bc 87b6 703d 6390 bfbc
00000130: 7050 003d fb3d 3bba 4747 8e3c f987 14ba
00000140: b984 07bb 13c2 2d3d e710 153d d2bf f5ba
00000150: aca8 303d 0564 cd3b 5692 5ebc b1bb 3c3a
00000160: f375 593d e766 2c3d 3739 8fbd 3dc1 c93b
00000170: f032 263c 5fdd 07bd 0e8f e53c 0025 523d
00000180: 429d 5fbd 53f6 5bbd 18ea fc3c 605f 1b3d
00000190: 2bf9 7bbd c441 01bd e565 12bc dbfa 38ba
000001a0: 328a b1bc c4cf 853c 4617 a73b ddcc 6c3d
000001b0: 255e b9bb 2b43 0e3c e5e3 573c 8893 c9bb
000001c0: df62 c73c 73c2 c53c 41a9 f7bc f3bc 4a3d
000001d0: 805d 803c 4673 16bc bbdb ca3c 7fa1 36bd
000001e0: 4e82 053c bd52 f73c b442 5b3c d666 7b3d
000001f0: 14a6 c93b 7cc6 db3c 523f ea3c e0bb 2e3c
00000200: 7667 713c c764 2439 1526 853c f8b5 9bbc
00000210: 96ab 03bd c678 29bc 7341 cdbb 23ed c63c
00000220: 703a 8bbc b535 e33c 3237 90bd ab69 9bbb
00000230: 1dfd 443d bc46 323d ad91 a83c 646b b2ba
00000240: 609d b83b 998d 7cbc 7acd be3c 0ff8 d7bb
00000250: 7a75 bd3c 2e03 9cbc d47d a339 ba63 37bc
00000260: abc4 52bd 7012 2e3a d8ba 16bd 101b 3c3a
00000270: f76a f33c 1a54 cc3b fa61 7abd 2332 3fbb
00000280: 22ea 363c 9108 e6bc 500a 903a c42a f3bc
00000290: 4535 2bba dd21 11bb 6f0d cd3c cb2e ad3b
000002a0: f91a d7bb 6b98 3fbc b6c6 10bb bff2 dfbb
000002b0: 36e3 7f3c 3ee2 69bd 138d a73c 54b9 a63c
000002c0: 1878 21bd 6620 493d d922 503c 8722 a63c
000002d0: e850 623c 7c22 e3bc a872 5abb 8b40 e03c
000002e0: 213c 613c 79dc 7dbc 1de1 433b c009 30bc
000002f0: ce3c c83b 77b0 4ebd 407b 0ebd 0bd4 4ebd
00000300: bf91 843d 1a75 5fbb 8c36 a73d 42e2 fb3c
00000310: df03 d53a 3330 bbbc c352 45bc 2990 1a3d
00000320: 3ec4 a7bc c2ba fabc 8109 d5bc 3375 5d3b
00000330: e22c d3bc 1372 af3c e200 f63b 3312 0abc
00000340: 1a40 eabc ba26 1a3d 6ebd 943c 6a94 af3d
00000350: 64bf ce3b 3cdf 8abc c3d3 3fbd 22ae 9abc
00000360: e887 073d 762e 81bc 9d63 88bb 8625 ab3c
00000370: 20e0 43bd 425a 5dbd 60d6 b43c dff4 5c3c
00000380: 3510 a8bc 2063 39bd a7be 35bc 67c4 ca3c
00000390: 4f55 25bd 3026 bf3c e63c 20bd c10f 80bc
000003a0: 858f 443b 898c a13a 34fc b6bb e91d c4bc
000003b0: 289f 503b 27ba 863b 045a ddbc 54ac bbbc
000003c0: e5db 713c b93a 953c 69bb cc3c 10a1 ee3b
000003d0: 59c3 2f3d 8549 863d 701b 7dbc 337f 193c
000003e0: 0930 ab3c cca1 be3c 09dd 45bb 2082 56bc
000003f0: 239f 21bc a791 3f3d 953f a43d c6f7 4dbd
