model/beauty_100_users_500_items/collaborative/user_embeddings_1.pt (torch, 271630 bytes, 1 tensors)

weight f4 [88, 768]
0.023005996 -0.02371721 0.020798108 -0.027060961 0.008439947 0.03085005 0.025942152 -0.0044079693
0.014890748 -0.055587746 -0.027030969 -0.020625662 0.0037609788 0.00080143934 0.013373678 -0.031212827
0.020362204 0.050624717 -0.008278644 -0.008522899 0.013587968 -0.018445263 0.0294235 0.0029987479
0.039797716 0.0051144646 -0.0017946244 0.041461356 0.02637562 0.048629213 0.038230702 0.0079372255
0.019199116 -0.04370122 -0.03348656 -0.0047882935 -0.012722269 0.015950061 -0.009303027 0.010940523
0.03656483 -0.006449266 0.011770544 0.01094122 0.03141031 0.014036296 -0.01155222 -0.011544396
0.040766437 -0.0299798 0.01665746 0.017991966 -0.012212743 -0.0030759769 0.02890944 -0.005056206
0.0039385604 -0.030197253 -0.037166864 -0.012780782 -0.0012395199 0.050030805 0.0063748695 0.008971212
0.032580484 -0.022994291 0.036196698 -0.025902297 0.0035284134 0.031570166 -0.028309949 0.003272054
-0.04075507 -0.021751711 0.05350318 -0.03329859 0.028648825 -0.012031642 0.016135115 0.0078312475
-0.0072890637 0.045134842 0.042063657 0.0015666208 0.056044627 -0.00049217755 -0.022123007 -0.014122536
0.048471592 0.02649478 -0.068957314 0.0032496692 0.004383752 -0.020378374 0.023999693 0.046372324
-0.049732976 -0.046145573 0.022190658 0.016401898 -0.036599744 -0.023680963 0.008019927 0.007306329
-0.032637123 0.012793488 0.003917207 0.052678052 0.007910823 0.018178953 0.006062068 -0.0096358955
0.028194254 0.032231413 -0.01360546 0.035957 0.031096091 -0.017782656 0.030417522 -0.047321413
0.010139834 0.019034555 0.009049854 0.046838544 0.017156217 0.040367577 0.029875915 0.0008909903
0.010958965 -0.004036821 -0.00024260931 -0.020121193 -0.027327716 -0.022471005 0.008151286 0.012449795
-0.005910361 0.019360503 -0.04602377 0.0009889309 0.04926165 0.040562194 0.013626307 -0.016263075
0.0028802871 -0.015604813 0.025144951 -0.0010008166 0.015213867 -0.0063334256 -0.0014431763 -0.020581039
-0.037676677 0.0077534053 -0.01775698 0.010718917 0.033998776 0.018106868 -0.052226637 -0.01349444
0.01841183 -0.0272268 0.021918597 -0.027446434 0.002445655 -0.012167882 0.027589433 0.008245761
0.0045286305 -0.016084336 -0.0067966646 -0.021969302 -0.0015081557 -0.05674287 0.018594148 0.016324347
-0.02810858 0.04154241 0.01391936 0.03087145 0.016621405 -0.01529479 0.0031640404 0.021035796
0.0016776745 0.0022779293 -0.006220185 0.004849075 0.0009129885 -0.055620566 -0.018160975 -0.063681185
0.049663536 0.0071404036 0.060066275 0.021116737 -0.00023151952 -0.034229986 -0.018333621 0.03292512
-0.020860676 -0.043495007 -0.023156004 0.020471858 -0.02743413 0.014208843 -0.0023257006 -0.0024269344
-0.025049578 0.04768301 0.018206228 0.091630496 0.0035250958 -0.023513896 -0.038408566 -0.018865991
0.026829997 -0.007901021 -0.0049135396 0.021266036 -0.041327994 -0.05206717 2.4255914e-05 0.012830606
-0.009910014 -0.036398426 -0.01219726 0.027829217 -0.03218265 0.022991918 -0.019457383 -0.0220197
0.0061218548 -0.009411145 -0.012924937 -0.011592896 0.0062620225 -0.0006203514 -0.019864192 -0.017031228
0.017907491 0.031525627 0.028719502 -0.007200233 0.028467858 0.046632078 0.000645251 0.015916724
0.019218348 0.013908137 -0.012342825 -0.011409556 -0.0007916889 0.04515672 0.058140427 -0.036405988
00000000: 1277 bc3c 984a c2bc cb60 aa3c f3ae ddbc
00000010: b447 0a3c 3eb9 fc3c a384 d43c ba70 90bb
00000020: 53f8 733c faaf 63bd 0d70 ddbc 26f7 a8bc
00000030: c17a 763b af17 523a 451d 5b3c 0bb2 ffbc
00000040: a3ce a63c dd5b 4f3d 26a3 07bc a1a3 0bbc
00000050: 12a0 5e3c 851a 97bc 8d09 f13c a486 443b
00000060: ee02 233d 3d97 a73b 9a39 ebba 62d3 293d
00000070: af11 d83c 6d2f 473d cc97 1c3d 230b 023c
00000080: 7747 9d3c 0d00 33bd 3429 09bd 1ee7 9cbb
00000090: 1071 50bc b4a9 823c b96b 18bc e13f 333c
000000a0: 01c5 153d 5d54 d3bb 3dd9 403c ce42 333c
000000b0: 19a8 003d 7ef8 653c 8645 3dbc b524 3dbc
000000c0: b5fa 263d 3398 f5bc 3a75 883c e363 933c
000000d0: f517 48bc 5496 49bb 7dd3 ec3c 88ae a5bb
000000e0: 0a0f 813b 3b60 f7bc 483c 18bd 7c66 51bc
000000f0: 6377 a2ba 1aed 4c3d 48e4 d03b fefb 123c
00000100: 1d73 053d 865e bcbc fd42 143d 0e31 d4bc
00000110: f43c 673b b84f 013d 44ea e7bc f56f 563b
00000120: caee 26bd a530 b2bc 2726 5b3d 1a64 08bd
00000130: f1b0 ea3c 5d20 45bc ca2d 843c a24e 003c
00000140: 19d9 eebb 50df 383d f14a 2c3d 1257 cd3a
00000150: 0d8f 653d 7a05 01ba 4f3b b5bc 3662 67bc
00000160: 268a 463d 950b d93c 7e39 8dbd 67f8 543b
00000170: 94a5 8f3b 8cf0 a6bc 019b c43c e8f0 3d3d
00000180: ceb4 4bbd 2403 3dbd 2fc9 b53c 465d 863c
00000190: 9de9 15bd 94fe c1bc 0366 033c ee69 ef3b
000001a0: 81ae 05bd c79b 513c ea5b 803b f1c4 573d
000001b0: 669c 013c 07ec 943c 50a4 c63b e0df 1dbc
000001c0: a3f7 e63c 1605 043d 6fe9 5ebc a647 133d
000001d0: 3bbd fe3c efac 91bc 2b2e f93c 19d4 41bd
000001e0: 8c21 263c 5bee 9b3c d745 143c c6d9 3f3d
000001f0: 328b 8c3c 7958 253d 56be f43c 5991 693a
00000200: 3b8d 333c 4f47 84bb f164 7eb9 33d5 a4bc
00000210: 60de dfbc 1d15 b8bc f98c 053c 3afa 4b3c
00000220: b4ab c1bb eb99 9e3c 6c83 3cbd 049f 813a
00000230: 95c6 493d 8b24 263d e040 5f3c 243a 85bc
00000240: 33c3 3c3b 54ab 7fbc c9fc cd3c d52d 83ba
00000250: 9543 793c a088 cfbb f628 bdba 9199 a8bc
00000260: dc52 1abd 4710 fe3b 1677 91bc 659e 2f3c
00000270: 4d42 0b3d db54 943c 99eb 55bd c917 5dbc
00000280: 68d4 963c bd0a dfbc a18e b33c 58d7 e0bc
00000290: 4847 203b cc5b 47bc 3c03 e23c 3a19 073c
000002a0: e864 943b 4cc3 83bc 8eb6 debb f7f8 b3bc
000002b0: 4fad c5ba 366b 68bd c152 983c a3ba 853c
000002c0: f743 e6bc 6028 2a3d 070e 643c 20e6 fc3c
000002d0: 9d29 883c 0097 7abc ca5b 4f3b 4353 ac3c
000002e0: 6ae5 db3a 5049 153b b2d2 cbbb fde4 9e3b
000002f0: 9f55 6f3a 64d2 63bd 53c6 94bc 486b 82bd
00000300: fe6b 4b3d 0cfa e93b 0e08 763d 02fd ac3c
00000310: 0cc4 72b9 be34 0cbd 6430 96bc 7edc 063d
00000320: 02e4 aabc d227 32bd a9b1 bdbc 99b4 a73c
00000330: 8abd e0bc 35cc 683c c86a 18bb 340d 1fbb
00000340: c634 cdbc 434f 433d 3a25 953c c5a8 bb3d
00000350: 4b05 673b 37a0 c0bc 4d52 1dbd da8c 9abc
00000360: 95ca db3c 4973 01bc c201 a1bb 1c36 ae3c
00000370: 8b47 29bd 6344 55bd 2e79 cb37 7637 523c
00000380: 9d5d 22bc 8416 15bd 04d7 47bc 19fa e33c
00000390: f4d1 03bd 8c59 bc3c 1765 9fbc a862 b4bc
000003a0: d799 c83b 3431 1abc 1dc3 53bc 21f0 3dbc
000003b0: a731 cd3b 149f 22ba 3bba a2bc 1385 8bbc
000003c0: bbb2 923c 0421 013d 2945 eb3c efef ebbb
000003d0: 6d35 e93c 4701 3f3d 1026 293a ca63 823c
000003e0: cc6f 9d3c f4de 633c 8f39 4abc 25ef 3abc
000003f0: 5889 4fba 41f6 383d a824 6e3d 721e 15bd
